model/model.pth (torch, 16787 bytes, 4 tensors)

linear1.weight f4 [256, 11]
0	0x3eb1790d	0.34662667
1	0x3e7d3ff5	0.24731429
2	0x3e054867	0.130159
3	0xbe63a173	-0.22229557
4	0xbe2a3c05	-0.16624458
5	0x3d63aac0	0.05558276
6	0xbe5f1454	-0.21785098
7	0x3f002a38	0.5006442
8	0x3ee84484	0.45364773
9	0x3eea3962	0.45746905
10	0x3ef22df2	0.47300678
11	0x3e6150f7	0.22003542
12	0xbd97766e	-0.073956355
13	0xbeb14567	-0.34623262
14	0xbe14f707	-0.14547358
15	0xbd03600a	-0.03207401
16	0x3c95c1c2	0.018280867
17	0xbe47d283	-0.19513898
18	0x3da47121	0.0802939
19	0xbaf576b0	-0.0018727388
20	0x3e252941	0.16129018
21	0x3d9ffbf0	0.07811725
22	0x3edf9d96	0.43674916
23	0xbf270f8c	-0.652581
24	0x3dd852d7	0.105626754
25	0xbdbc0173	-0.09179964
26	0xbe8d8f57	-0.27648422
27	0xbe8edf51	-0.27904752
28	0xbe29309d	-0.16522451
29	0x3d3a83d2	0.04553587
30	0x3ea4dbc1	0.3219891
31	0x3e93a7bd	0.28838912
32	0x3e5129a7	0.20426045
33	0x3eecbd9a	0.46238405
34	0x3de4e023	0.11175563
35	0x3ea26bd6	0.31722897
36	0xbea0815c	-0.31348693
37	0x3e4058ab	0.18783824
38	0x3d700452	0.05859787
39	0xbdb1b452	-0.086769715
40	0x3ebd31ad	0.36951962
41	0xbd4219bf	-0.047387835
42	0xbd662fb5	-0.05619784
43	0x3d8ff209	0.070285864
44	0xbebf26c3	-0.3733426
45	0x3ed3bd4c	0.4135536
46	0xbea214cf	-0.316565
47	0xbecee52d	-0.40409222
48	0x3e8e3620	0.2777567
49	0x3ddba92f	0.107256286
50	0x3e89fda2	0.2695132
51	0xbf37c625	-0.7178672
52	0xbd81879e	-0.06324695
53	0x3e0d8f12	0.13824108
54	0xbd58f59f	-0.052968618
55	0x3cd851a8	0.026406124
56	0x3d15968e	0.036520533
57	0x3aaa0184	0.0012970422
58	0xbca69ec2	-0.020339373
59	0xbec937a7	-0.39300272
60	0x3edbeda7	0.42954752
61	0xbea5d1a9	-0.3238652
62	0xbf06cceb	-0.5265643
63	0xbe026f41	-0.12737752
64	0x3e87e1f2	0.2653957
65	0xbef66e58	-0.4813106
66	0xbea20fff	-0.3165283
67	0x3e0b5c97	0.13609539
68	0xbe031d60	-0.12804174
69	0x3e711ca9	0.23546089
70	0xbde910c6	-0.113801524
71	0xbee8e2c5	-0.4548551
72	0x3d75b9f6	0.0599918
73	0x3d6b0348	0.057376176
74	0x3e8e7de4	0.27830422
75	0xbbfdb316	-0.007742296
76	0x3ddb9d6b	0.107233845
77	0xbd0524a4	-0.032505646
78	0x3f24ef6d	0.64427835
79	0xbe4fc333	-0.20289306
80	0x3e81cd34	0.2535187
81	0x3cd7d2d2	0.026345644
82	0xbe86823b	-0.26271233
83	0x3e805ddf	0.25071618
84	0xbe665804	-0.22494513
85	0x3e306a78	0.17228115
86	0xbebb2f6b	-0.36559615
87	0xbdd6c789	-0.10487277
88	0x3e0af16d	0.13568659
89	0x3c0feb56	0.008784136
90	0x3c306e0e	0.010768427
91	0xbe3ef75e	-0.1864905
92	0xbea9c415	-0.3315741
93	0x3e90da43	0.2829152
94	0x3ef08df0	0.4698329
95	0x3ebb9b69	0.36642006
96	0xbed309f5	-0.41218534
97	0xbda34cf8	-0.07973665
98	0xbeb67299	-0.35634306
99	0xbe5c3e2a	-0.21508089
100	0xbe5ac402	-0.21363834
101	0x3dfa8d9e	0.122340426
102	0x3e9678ea	0.29389125
103	0x3e7b2a8d	0.2452795
104	0xbe0a2d26	-0.13493785
105	0xbf0811a8	-0.5315194
106	0x3ed0e0c0	0.4079647
107	0xbeb00adc	-0.34383285
108	0xbeac5b4f	-0.33663413
109	0xbe9c063f	-0.30473515
110	0xbdbec5a6	-0.09315042
111	0xbddf53ec	-0.10904679
112	0x3edbfe0f	0.4296727
113	0x3ca3f3d8	0.020013735
114	0xbf281528	-0.6565728
115	0x3e57b5b1	0.21065404
116	0xbe869ee2	-0.26293093
117	0xbf107a96	-0.5643705
118	0xbe07e230	-0.13269877
119	0x3e37d7c8	0.17953408
120	0xbe792ae7	-0.24332772
121	0xbdd1420f	-0.10217678
122	0x3f2d27ad	0.67638665
123	0xbe77a49d	-0.24183889
124	0xbe4206c9	-0.18947901
125	0x3ea7a670	0.3274417
126	0xbdb882f9	-0.09009356
127	0xbe7c8631	-0.24660565
128	0xbeb22b98	-0.34798884
129	0x3e178613	0.14797239
130	0x3e66c0f6	0.22534546
131	0xbebf1818	-0.3732307
132	0x3cc92e4f	0.024558214
133	0xbf2107f5	-0.62902766
134	0x3f002d17	0.500688
135	0xbe81ac72	-0.25326878
136	0x3ee7ae4a	0.4525016
137	0x3e888d06	0.26670092
138	0xbdb7238d	-0.08942328
139	0xbe5d440b	-0.21607988
140	0x3df25017	0.11831682
141	0xbedcb57b	-0.4310721
142	0x3ea715ee	0.3263392
143	0xbcfdade7	-0.030966712
144	0xbde31775	-0.110884584
145	0xbe64b1fb	-0.22333519
146	0xbef82e6e	-0.48472923
147	0x3e848b1e	0.25887388
148	0xbed1ad9c	-0.40952766
149	0x3eec60ec	0.46167696
150	0xbf154624	-0.5831015
151	0x3da46ace	0.08028184
152	0xbeb37762	-0.3505202
153	0x3c7b6297	0.01534333
154	0x3e9d6d88	0.30747628
155	0x3e0524fe	0.13002393
156	0x3eb3ab16	0.35091466
157	0x3cd0d481	0.025491955
158	0x3d4f4dd9	0.05061135
159	0xbd4bdadc	-0.049769267
160	0xbd9a299a	-0.07527466
161	0x3e9e4960	0.30915356
162	0x3eb1b2ef	0.34706828
163	0x3e77f6e6	0.24215278
164	0x3e65499b	0.2239136
165	0x3ea492d8	0.32143283
166	0xbd6a828e	-0.057253413
167	0xbdf0e3f3	-0.11762228
168	0x3eecfda8	0.46287274
169	0xbe2ce5e3	-0.1688457
170	0x3f1128f1	0.56703097
171	0x3e5d819a	0.2163147
172	0xbe88c97b	-0.26716217
173	0x3ed3d698	0.4137466
174	0xbebdbf90	-0.37060213
175	0xbb93e4bd	-0.0045133517
176	0x3e58a87d	0.21158023
177	0xbdd6c0c1	-0.10485984
178	0xbc0a06b1	-0.008424447
179	0x3ea5970e	0.32341808
180	0xbeb300cc	-0.34961545
181	0xbdc1997f	-0.09453105
182	0xbe1a8838	-0.15091026
183	0xbee8c753	-0.45464572
184	0xbe767833	-0.2406929
185	0x3e164032	0.14672926
186	0xbead2708	-0.3381884
187	0xbe2ba544	-0.16762263
188	0xbc970918	-0.018436953
189	0x3e280081	0.16406442
190	0x3eddae2f	0.43296954
191	0x3e98d83a	0.29852468
192	0xbe2089a8	-0.15677512
193	0xbea52789	-0.32256725
194	0xbee15aab	-0.44014487
195	0xbe8ae321	-0.2712641
196	0x3d3b86c0	0.045782804
197	0x3e8c9359	0.27456167
198	0x3de5a474	0.112130076
199	0x3e58a5a3	0.21156935
200	0xbf0a3e64	-0.5400145
201	0xbeaeedb8	-0.3416574
202	0x3dfebe70	0.12438667
203	0xbf00f5fa	-0.5037533
204	0x3dcb970c	0.09940919
205	0xbe470338	-0.19434822
206	0x3ebbe857	0.367007
207	0x3e58caab	0.21171062
208	0xbe65938c	-0.22419566
209	0xbed31b2f	-0.41231677
210	0x3edd9985	0.4328119
211	0x3e9628c0	0.29327965
212	0xbed9b233	-0.42518768
213	0x3cb06bae	0.02153572
214	0x3dcdeace	0.10054551
215	0x3e660281	0.22461893
216	0xbea6f255	-0.3260676
217	0xbd5cd73f	-0.053916212
218	0x3ba34386	0.0049824147
219	0x3e15d08f	0.1463034
220	0x3e999be6	0.30001754
221	0x3ed04b43	0.4068242
222	0xbe90a822	-0.28253275
223	0xbef2fe9c	-0.47459877
224	0x3b2db872	0.0026507643
225	0x3e63ed20	0.22258425
226	0xbe2cc1b3	-0.16870765
227	0x3f1017bf	0.56286234
228	0xbea5daba	-0.32393438
229	0xbd2c8626	-0.04212012
230	0x3e73d9cd	0.23813553
231	0x3e7606e3	0.24026065
232	0xbd9ae4aa	-0.075631455
233	0xbcbd74cd	-0.023126984
234	0xbea677af	-0.32513186
235	0xbe4c5547	-0.19954406
236	0x3e3447da	0.17605534
237	0xbed28efe	-0.4112472
238	0xbd6bc8b5	-0.057564456
239	0x3eb19861	0.34686568
240	0xbd25674c	-0.040381715
241	0xbe86a169	-0.2629502
242	0xbe8ec450	-0.2788415
243	0xbee90841	-0.4551411
244	0x3e403a23	0.18772177
245	0xbd1a4750	-0.037665665
246	0x3e65e823	0.22451834
247	0x3e4c14b0	0.19929767
248	0x3e208b42	0.15678123
249	0xbdce1c7d	-0.100640275
250	0xbe51f081	-0.20501901
251	0x3d60e9a6	0.054910325
252	0x3d88175e	0.06645082
253	0x3ee205d1	0.44145063
254	0x3dfc6e01	0.12325669
255	0x3f0e0bca	0.5548674

linear1.bias f4 [256]
0	0xbe94b971	-0.2904773
1	0xbe5cc428	-0.21559203
2	0xbe1cd546	-0.15315732
3	0xbdb249d7	-0.0870549
4	0x3e9295c4	0.28629887
5	0x3d68e441	0.056858305
6	0xbea1471a	-0.3149956
7	0x3e51a1a2	0.20471814
8	0xbe76ba34	-0.24094468
9	0x3cee773a	0.029109586
10	0x3e432468	0.19056857
11	0xbd93e2e8	-0.07221013
12	0xbd8943ea	-0.06702407
13	0x3ecf68c9	0.40509632
14	0xbe8d3c1c	-0.27584922
15	0xbe4b9798	-0.19882047
16	0xbd84ea75	-0.06490032
17	0x3be7cfb3	0.00707432
18	0x3dd0bd50	0.101923585
19	0x3e8b2e79	0.27183893
20	0xbe25f957	-0.16208397
21	0xbe2a375d	-0.16622682
22	0x3f4265ce	0.7593659
23	0xbe3873ab	-0.18012874
24	0xbe83b11f	-0.2572107
25	0xbe9af120	-0.3026209
26	0xbe571eb2	-0.21007803
27	0xbe82fa5b	-0.2558163
28	0xbe8eef18	-0.2791679
29	0xbe16ff6d	-0.14745875
30	0xbd10bcdf	-0.03533637
31	0x3dce3aba	0.10069795
32	0x3eb09800	0.34490967
33	0xbe63cb5b	-0.22245543
34	0xbe31dab2	-0.17368582
35	0xbdb0bd07	-0.08629804
36	0xbe9d3d6f	-0.30710933
37	0x3e9bf3b0	0.30459356
38	0x3f963c3f	1.1737136
39	0x3d13909c	0.036026582
40	0xbe89aec8	-0.2689116
41	0xbe4e7da9	-0.20165123
42	0xbdce4065	-0.10070876
43	0x3df9f586	0.12205033
44	0xbe419115	-0.18903
45	0xbe6978c3	-0.22799973
46	0xbd8c0fee	-0.06838976
47	0xbe7159a5	-0.23569353
48	0xbe5d577e	-0.21615407
49	0xbea01e37	-0.31273052
50	0xbd5eb38a	-0.05437044
51	0xbd8c617a	-0.0685453
52	0xbe19c304	-0.15015799
53	0x3c85afa9	0.016319113
54	0x3e26c3e5	0.16285665
55	0x3e71d289	0.23615469
56	0x3f53b6ed	0.82701
57	0x3e4fc434	0.2028969
58	0x3ec7df8e	0.39037746
59	0x3cbb1f9f	0.022842227
60	0x3edf3ad8	0.43599582
61	0x3f1f1f6d	0.62157327
62	0x3e28e204	0.16492468
63	0xbe82a607	-0.25517294
64	0xbd55d937	-0.052209105
65	0xbdde3ca3	-0.10851409
66	0x3e2c363c	0.16817564
67	0xbdb13783	-0.08653166
68	0x3d72a581	0.059239868
69	0xbd8947a4	-0.067031175
70	0xbeb80b36	-0.35946053
71	0x3d7e3e08	0.062070876
72	0xbe951c22	-0.29123026
73	0x3f0dca8e	0.553872
74	0x3d0f99aa	0.035058655
75	0xbe969327	-0.29409143
76	0x3e1f626b	0.15564887
77	0xbcb61323	-0.022225922
78	0xbe4b3fee	-0.19848606
79	0xbe4f7672	-0.20260027
80	0xbe1e8db0	-0.15483737
81	0xbe97d0fe	-0.29651636
82	0x3e383d02	0.17992023
83	0x3e497b3f	0.19675921
84	0x3e3f7267	0.18695985
85	0xbda75e9d	-0.08172343
86	0x3d5b6f82	0.05357314
87	0xbe8a8e83	-0.27061853
88	0x3d83175f	0.06400942
89	0xbe39344d	-0.18086357
90	0x3e9f856c	0.3115648
91	0xbe961366	-0.29311675
92	0xba30da08	-0.00067463564
93	0x3d100c84	0.035168186
94	0xbe7ac1ba	-0.24487963
95	0xbe7f40e4	-0.24927098
96	0xbe0a09f6	-0.13480362
97	0xbe8fba6a	-0.2807191
98	0xbeb517fd	-0.35369864
99	0xbeb5f2bd	-0.35536757
100	0xbca61fe3	-0.020278877
101	0x3de4a4f9	0.111642785
102	0x3ca6713c	0.020317666
103	0x3e6846a6	0.226832
104	0xbd4be5e5	-0.04977979
105	0xbec74b2a	-0.38924533
106	0xbe049fd9	-0.12951602
107	0xbdeef073	-0.11666956
108	0xbd00bc8d	-0.031429816
109	0xbcc879e2	-0.02447218
110	0xbe521004	-0.20513922
111	0x3dde41c5	0.10852388
112	0x3dba678b	0.091017805
113	0x3e782ba4	0.24235398
114	0xbda61c7a	-0.081109
115	0xbe5f6163	-0.21814494
116	0xbe01e624	-0.12685448
117	0xbdb18570	-0.08668029
118	0x3e818a0a	0.25300628
119	0x3dcd4e56	0.10024707
120	0xbee1fdbe	-0.44138902
121	0x3db97eb1	0.090573676
122	0xbe8755c5	-0.26432624
123	0x3e2321bc	0.15930837
124	0x3c86e162	0.016464893
125	0xbe31724d	-0.17328759
126	0x3e45305a	0.19256726
127	0x3eb4e220	0.3532877
128	0xbe348598	-0.17629087
129	0xbe7af225	-0.24506433
130	0xbe5d4054	-0.2160657
131	0xbe53aed8	-0.20672166
132	0xbe86c458	-0.26321673
133	0xbe887cae	-0.26657623
134	0xbe71bbea	-0.2360684
135	0xbbf6503f	-0.0075168903
136	0xbea173a8	-0.3153355
137	0xbd7537cd	-0.05986767
138	0xbd77d665	-0.060507197
139	0xbe8bb78b	-0.2728847
140	0xbe432eb9	-0.19060792
141	0x3e7b56ec	0.24544877
142	0x3cba20e9	0.02272077
143	0xbe0cc0c1	-0.13745405
144	0xbe7acc7c	-0.24492067
145	0x3e8a4f08	0.2701342
146	0x3d27893d	0.040902365
147	0x3e98bc92	0.29831368
148	0xbd6e0cd3	-0.0581177
149	0xbea695cf	-0.3253617
150	0x3e9ba4a4	0.30399048
151	0x3db23bb7	0.08702796
152	0x3e34f3bf	0.17671107
153	0xbe7fe08c	-0.24988002
154	0xbd0aa142	-0.033845194
155	0x3e319046	0.17340192
156	0xbe452fcc	-0.19256514
157	0xbde95978	-0.11394018
158	0xbe4deec7	-0.20110618
159	0x3eb24f9a	0.34826356
160	0xbdba1801	-0.0908661
161	0xbd57d630	-0.0526945
162	0x3df8eb78	0.12154287
163	0xbeae74b3	-0.3407341
164	0xbe9e64dd	-0.30936328
165	0xbe144b0b	-0.14481752
166	0xbe8594d1	-0.260901
167	0x3dc56343	0.09638073
168	0x3e5d7edd	0.21630426
169	0xbdbd6ab8	-0.092488706
170	0xbea0c7c1	-0.314024
171	0xbcc553ec	-0.024087869
172	0xbe36aee0	-0.17840147
173	0x3e896e19	0.2684181
174	0xbd54d567	-0.05196133
175	0xbe874e3e	-0.26426882
176	0xbc8cab7f	-0.01717162
177	0xbc912e5e	-0.017722305
178	0x3f86c616	1.0529201
179	0xbe24d510	-0.16096902
180	0xbd61c599	-0.055120084
181	0x3dcde852	0.10054077
182	0xbd2b137b	-0.041766625
183	0xbe018cff	-0.12651442
184	0xbdb8faf1	-0.09032238
185	0xbefde530	-0.4958892
186	0xbda62119	-0.081117816
187	0xbe7e6388	-0.24842656
188	0xbea047ba	-0.31304723
189	0x3eb5f174	0.35535777
190	0xbe3d4da4	-0.18486649
191	0x3c9f589b	0.01945143
192	0xbe6c669e	-0.2308602
193	0x3e9c2dbb	0.3050364
194	0x3d543cb0	0.05181569
195	0xbd983c8d	-0.07433424
196	0xbd7d1812	-0.061790533
197	0xbd8679dd	-0.06566212
198	0x3cc4e327	0.024034096
199	0xbe88f072	-0.26745945
200	0xbe214cec	-0.15752
201	0xbdfabaa3	-0.122426294
202	0xbc23b1a0	-0.00999108
203	0x3e9b6d2b	0.30356726
204	0x3cc721aa	0.024308044
205	0xbe41f00a	-0.18939224
206	0xbe1988b1	-0.1499355
207	0xbdcb24a6	-0.099190995
208	0x3df49360	0.11942172
209	0xbe53bcbb	-0.20677464
210	0xbe1bee9c	-0.15227741
211	0xbdcbfd2d	-0.09960399
212	0x3ee8bf72	0.4545856
213	0x3e846af5	0.25862852
214	0x3b22f612	0.0024865908
215	0x3db9280d	0.09040842
216	0xbd4421f3	-0.04788394
217	0x3e7e9b8e	0.24864027
218	0xbe8c99d6	-0.27461118
219	0x3cd448b2	0.02591357
220	0xbdf21994	-0.11821285
221	0xbcbd9ccc	-0.023146056
222	0xbe56d6b0	-0.20980334
223	0x3e5a807e	0.21338078
224	0x3e3ad1d5	0.18244107
225	0x3d754f33	0.059889983
226	0xbea2ffbe	-0.3183574
227	0x3cd31dd0	0.025771052
228	0x3ec4fff4	0.38476527
229	0x3dc144fd	0.094369866
230	0xbddc2980	-0.10750103
231	0xbe73f43a	-0.23823634
232	0xbe364e5f	-0.17803334
233	0xbe42c37b	-0.19019882
234	0xbe16d643	-0.14730172
235	0xbe7deab0	-0.24796557
236	0xbe49b1db	-0.19696753
237	0x3ca58faa	0.020210106
238	0xbd311890	-0.043236315
239	0xbe6c84fe	-0.23097607
240	0x3d6f05e3	0.058355223
241	0x3e12deb6	0.1434277
242	0xbe4863be	-0.19569299
243	0xbd0ae0b6	-0.033905707
244	0x3e14d419	0.14534034
245	0xbcfec345	-0.031098971
246	0x3ecccb75	0.39998975
247	0xbe682ac4	-0.22672564
248	0x3dd8acc0	0.105798244
249	0x3d8f324f	0.069920175
250	0x3d7275bb	0.059194308
251	0xbba0b274	-0.004904086
252	0x3c86791b	0.01641517
253	0x3e66edec	0.22551697
254	0xbe6782f3	-0.22608547
255	0xbbcd248b	-0.00626046

linear2.weight f4 [3, 256]
0	0xbe5e0766	-0.2168251
1	0xbca9925f	-0.020699678
2	0xbe7c7ef5	-0.24657805
3	0xbe4dcbf4	-0.20097333
4	0x3edfa7cf	0.43682715
5	0x3e89c5df	0.26908776
6	0xbc072b0a	-0.008250007
7	0x3e8afda9	0.27146652
8	0xbede8329	-0.43459442
9	0x3ea52732	0.32256466
10	0x3e3a325a	0.1818327
11	0x3e55cd28	0.20879042
12	0x3d93bf88	0.07214266
13	0x3ecf1681	0.40446857
14	0xbdfaa3c3	-0.12238266
15	0xbf27a3af	-0.65484136
16	0xbe5631dc	-0.20917457
17	0xbe9f2619	-0.31083754
18	0x3a86bcd1	0.001027966
19	0x3e749208	0.23883832
20	0xbe97da8c	-0.29658926
21	0xbdde3453	-0.10849824
22	0x3e4fc97e	0.20291707
23	0xbe0aeb92	-0.13566425
24	0xbee79ac9	-0.4523528
25	0xbdfd4777	-0.123671465
26	0xbd7cebbe	-0.06174826
27	0xbb605d6a	-0.0034235367
28	0xbccd046a	-0.025026519
29	0x3c60dd61	0.013724656
30	0x3ce02ab8	0.02736412
31	0x3d6a8ef7	0.05726525
32	0x3e56c1e8	0.20972407
33	0xbe169c5b	-0.14708082
34	0x3e491876	0.19638237
35	0xbe516711	-0.20449473
36	0xbcbf9f44	-0.023391373
37	0x3ed6c385	0.41946045
38	0x3ea85a5f	0.32881448
39	0x3cf0b97e	0.029385325
40	0x3d2e7e16	0.042600714
41	0xbde62a72	-0.112385646
42	0xbd621670	-0.05519718
43	0xbe83f0e9	-0.25769737
44	0xbe8ed59a	-0.2789734
45	0xbeb423a1	-0.35183433
46	0xbed5909a	-0.41711885
47	0xbe8073d5	-0.25088373
48	0xbeafe5ef	-0.34355113
49	0xbe1e6e0e	-0.1547167
50	0xbdece5ec	-0.115672916
51	0xbd8980f3	-0.06714048
52	0xbed04b59	-0.40682486
53	0x3c23e129	0.010002413
54	0x3e143f09	0.14477171
55	0x3dfcf55d	0.12351487
56	0x3e466451	0.19374205
57	0xb9bf1780	-0.00036447868
58	0x3e465986	0.19370088
59	0x3caa8764	0.020816512
60	0x3e89284b	0.26788554
61	0x3ef1144b	0.47085795
62	0x3dbbede0	0.091762304
63	0xbd4588c5	-0.048226137
64	0x3d9442be	0.072392926
65	0xbeddaaf5	-0.43294492
66	0xbdfe7c8c	-0.12426099
67	0x3e587abd	0.21140571
68	0x3ed3190d	0.4123005
69	0xbbfed520	-0.0077768713
70	0xbc6797a0	-0.014135271
71	0x3ec72334	0.38894045
72	0xbf0fe11b	-0.5620286
73	0x3e5b6244	0.21424204
74	0xbd31c882	-0.04340411
75	0xbd24279c	-0.040076837
76	0x3e865149	0.2623389
77	0xba4059fa	-0.00073376263
78	0xbeb9da69	-0.36299446
79	0xbe0ad319	-0.1355709
80	0x3e5450c7	0.20733939
81	0xbef27afb	-0.47359452
82	0x3c6b63c0	0.014367044
83	0x3eb0a388	0.34499764
84	0x3e0e6caa	0.1390864
85	0xbe2831b3	-0.16425209
86	0xbd3fd432	-0.046833225
87	0xbe8aeacb	-0.27132258
88	0x3e9f2e19	0.31089857
89	0xbe457be8	-0.19285548
90	0x3f14c1e0	0.5810833
91	0xbe3493fc	-0.17634577
92	0x3ca08e44	0.019599088
93	0x3e32e0a4	0.17468506
94	0x3d452f30	0.048140705
95	0xbcfaa803	-0.030597692
96	0xbebec582	-0.37260062
97	0xbe7b718f	-0.24555038
98	0xbe67c74f	-0.22634624
99	0xbe9a1bca	-0.30099326
100	0xbd2b3514	-0.041798666
101	0x3e232198	0.15930784
102	0xbc5e8776	-0.013582101
103	0x3f07a5e1	0.52987486
104	0xbe98d7d4	-0.29852164
105	0xbe6b6927	-0.22989331
106	0xbeea3220	-0.45741367
107	0xbd3d6cd9	-0.046246383
108	0xbe9cdd63	-0.30637655
109	0x3cf854fb	0.03031396
110	0xbf1f6919	-0.6226974
111	0x3cacdc29	0.021101074
112	0x3e9f6b55	0.31136575
113	0x3e58df2c	0.21178883
114	0xbec328d9	-0.38117102
115	0xbc1f5aa8	-0.009726204
116	0xbe4ff361	-0.20307685
117	0x3c943914	0.018093623
118	0x3e93d7ea	0.28875667
119	0xbe31f404	-0.17378241
120	0xbe6e7a39	-0.23288812
121	0x3dda0bab	0.10646757
122	0xbee444e8	-0.4458382
123	0x3f00a6ac	0.5025432
124	0x3d5cfaaf	0.053950008
125	0xbb81e0da	-0.003963572
126	0x3d9a35cb	0.075297914
127	0x3ddd4a70	0.108052135
128	0xbe012616	-0.12612185
129	0xbf03f5a7	-0.5154671
130	0x3c03ef35	0.008052637
131	0xbe812ee9	-0.25231102
132	0xbbd500b5	-0.0065003284
133	0xbe36aab7	-0.1783856
134	0xbdb31e45	-0.08746008
135	0xbf0792c4	-0.5295832
136	0xbdacae34	-0.08431664
137	0x3dd7748b	0.10520276
138	0x3dc7de65	0.09759215
139	0xbe159970	-0.14609313
140	0xbe7fc22b	-0.24976413
141	0x3eb0133a	0.3438967
142	0x3d4643c4	0.04840447
143	0xbcee8c41	-0.029119613
144	0xbe169cbe	-0.1470823
145	0x3e44ccc0	0.19218731
146	0x3d1e4a35	0.038644988
147	0x3e4c03ef	0.19923376
148	0xbea94968	-0.33063817
149	0xbe1a369e	-0.15059897
150	0x3dbc7caf	0.09203469
151	0x3eb31bac	0.3498205
152	0x3e63973c	0.2222566
153	0x3e18b292	0.14911869
154	0x3ecf5366	0.40493315
155	0x3d0b4697	0.034002867
156	0xbd499adc	-0.04921995
157	0xbda97b03	-0.08275416
158	0x3e12514d	0.14288826
159	0x3eb0cfcd	0.3453354
160	0x3da709fe	0.08156203
161	0xbc3d0262	-0.011536213
162	0xbe587ba3	-0.21140914
163	0xbcd549c1	-0.026036145
164	0xbc81b8ae	-0.015835132
165	0xbe23c133	-0.15991668
166	0xbddf1857	-0.10893314
167	0x3d16136b	0.036639612
168	0x3e2e7e36	0.17040333
169	0xbe40f955	-0.18845113
170	0xbcbdb5e8	-0.023158029
171	0xbdaa57e9	-0.08317549
172	0xbdbe6c71	-0.09298027
173	0x3ede692f	0.43439624
174	0xbcd8dc4d	-0.026472235
175	0xbd1dd517	-0.038533296
176	0x3ed4c6b1	0.4155784
177	0x3e8f725d	0.2801694
178	0x3ea7f515	0.3280417
179	0x3d337d3b	0.0438206
180	0xbf1b61d0	-0.60696125
181	0x3ed5dbe7	0.41769335
182	0xbf159d3d	-0.5844305
183	0xbe02da71	-0.12778641
184	0xbefc6554	-0.49296057
185	0xbe2d5b2c	-0.1692931
186	0x3e1bc9c4	0.15213686
187	0xbd24e8dc	-0.040261135
188	0xbc4c8bd2	-0.012484508
189	0x3f034870	0.51282406
190	0xbe615aec	-0.2200734
191	0x3e1a4544	0.15065485
192	0xbdc91dc4	-0.098201305
193	0x3eae357a	0.34025174
194	0xbe3f08a1	-0.18655635
195	0x3c850edc	0.016242437
196	0xbe190437	-0.14943014
197	0x3da1f4f2	0.07908048
198	0x3d09b497	0.03361949
199	0xbe7d70ed	-0.24750109
200	0xbd20fd32	-0.039303966
201	0x3eb31aa8	0.34981275
202	0xbe700331	-0.23438717
203	0x3eb7b627	0.3588116
204	0xbf0d3c56	-0.5517019
205	0xbf01a2a0	-0.5063877
206	0xbe73e956	-0.2381948
207	0xbe00d4b4	-0.1258114
208	0xbec508a0	-0.38483143
209	0x3d1be9bf	0.038064715
210	0xbe0d4736	-0.13796696
211	0xbcbaab22	-0.02278668
212	0x3e855388	0.26040292
213	0x3f1f601d	0.6225603
214	0x3d81a748	0.063307345
215	0xbe16bff9	-0.1472167
216	0x3ea1d0e0	0.3160467
217	0x3f1a58ee	0.60291946
218	0xbd194228	-0.037416607
219	0x3e6121a3	0.21985488
220	0x3ed74120	0.42041874
221	0x3db9edb2	0.0907854
222	0xbd06fad0	-0.032954037
223	0x3e96cf08	0.29454827
224	0x3e8ff733	0.28118286
225	0x3e247737	0.16061102
226	0x3cbcc250	0.023041874
227	0x3d43208d	0.047638465
228	0x3db2fcdb	0.087396346
229	0x3e597450	0.21235776
230	0xbe575e96	-0.21032175
231	0xbee72ec5	-0.4515287
232	0xbe14d4fd	-0.14534374
233	0xbf1bb863	-0.60828227
234	0xbe59cf32	-0.21270445
235	0xbd2fff2e	-0.042967968
236	0xbf2909d1	-0.66030604
237	0x3ecdd07c	0.40198123
238	0x3d7c8c80	0.06165743
239	0xbda25ebf	-0.07928228
240	0x3bf97fea	0.0076141255
241	0x3ebcb66e	0.36857933
242	0xbf163321	-0.58671767
243	0xbc8a5651	-0.016886862
244	0x3eefe7ed	0.46856633
245	0x3ed73f71	0.4204059
246	0x3eaf650c	0.3425678
247	0xbd526aa9	-0.05137125
248	0x3e7de42c	0.24794072
249	0xbed070c2	-0.40711027
250	0x3e0484f2	0.1294134
251	0xbd964bad	-0.07338653
252	0xbeeb4be8	-0.4595635
253	0x3eca8cd2	0.39560562
254	0xbe6c694a	-0.2308704
255	0xbeb9c124	-0.36280167

linear2.bias f4 [3]
0	0x3e83921a	0.25697404
1	0x3d85c760	0.065321684
2	0x3c606648	0.013696261
