model/model_L.pth (torch, 16799 bytes, 4 tensors)

linear1.weight f4 [256, 11]
-0.4150438 0.7199184 -0.11056873 0.10929855 0.102073886 -0.34759235 -0.42106545 0.30933866
0.36714286 -0.41837835 -0.41311958 0.24187396 -0.0051374338 -0.1394089 -0.17462285 0.031541847
0.48344573 0.2845817 0.41151845 0.14990261 -0.28618973 -0.11510556 0.026458044 0.3549296
0.47311032 -0.1761688 -0.09138717 -0.19315375 -0.09879541 0.440553 0.29788384 0.38493472
0.34047598 -0.6488986 0.3444238 0.3617258 -0.07346905 -0.00763687 0.05705341 -0.15991192
-0.10545548 0.23661807 0.03891898 -0.0123371165 0.31991282 -0.08656258 0.06228847 -0.21187262
-0.41013515 0.3619954 0.08275934 0.44272876 0.55688566 -0.17214054 0.07381997 -0.06640523
0.60937214 -0.38589254 -0.27545497 -0.13081849 -0.25568098 0.088109165 -0.26990193 0.18153849
0.20542482 -0.106519625 0.51668376 -0.37863225 0.378304 -0.074818805 -0.22115497 -0.045167122
0.06550459 0.074029036 0.17274988 0.03131482 -0.29301676 -0.09071797 0.5011688 0.0003293584
0.09358581 0.18892118 -0.27159393 -0.2547075 0.24881265 0.3551319 -0.083825335 -0.17293063
0.09319738 -0.09451942 0.025476437 0.2760727 -0.3646118 0.09728832 -0.08941433 -0.28882298
-0.5736962 0.23728126 -0.5127133 0.076632895 0.505591 0.27557245 -0.15712307 0.2285237
-0.035705995 0.113217466 -0.4136176 -0.09372216 -0.13778476 -0.28542307 -0.37933108 0.076492526
0.55177426 0.24384625 -0.36120945 -0.40272385 0.02197283 0.3479925 -0.378202 -0.14909627
-0.40740448 -0.21103719 -0.0606157 0.22354813 -0.24541786 0.42626718 0.3177373 -0.046480935
-0.91795796 -0.28920472 0.31297636 0.33547214 0.4069031 -0.50862557 0.087602325 -0.38216585
0.2315872 0.5333906 -0.09211167 0.556108 -0.112893224 -0.38783824 0.16307385 -0.18897527
0.38973206 0.3312876 -0.31114796 -0.10077178 -0.28298026 0.23491915 -0.1707113 -0.3720362
-0.29426527 0.19974326 0.5058808 -0.40975043 -0.052757196 0.26227775 0.02380721 -0.06897754
-0.42628133 -0.3081993 0.080430895 0.19591089 0.4218046 0.13343515 0.5794939 -0.4220159
-0.30921793 -0.14709307 -0.3880408 0.120620005 -0.11751189 0.27405435 -0.3013552 -0.1770686
-0.3313241 0.55045676 -0.26066402 0.001751215 0.029388838 -0.15115848 0.033201396 -0.11222974
-0.10654423 0.027974248 -0.08784986 0.32327515 -0.22205305 -0.17862922 0.23480317 0.16713293
-0.31545803 -0.048393358 -0.27883998 -0.39913628 0.3792048 0.17195272 -0.12662308 -0.29988635
-0.34398764 -0.3611758 0.33440638 -0.27883068 -0.12248908 -0.45099214 0.23548403 -0.05497635
-0.25515336 -0.12598321 -0.709598 0.0980557 0.32006744 -0.12810647 0.2560688 -0.07396861
0.08504329 -0.53395325 0.037829746 -0.38295949 -0.33172107 -0.026282212 -0.1419595 -0.19019596
0.32212472 -0.12140789 -0.20712739 -0.1904366 0.3497354 -0.22374627 -0.5681951 0.42731628
-0.30818805 0.6381699 -0.018355953 0.1333194 0.047691822 -0.063935965 -0.20623365 0.16920115
-0.07196382 -0.26076758 -0.10830424 -0.22796908 0.2372305 -0.15421262 -0.23080318 -0.0706458
-0.078863576 0.17380166 0.34270257 0.14092253 0.20142905 -0.065768294 -0.48628387 0.5173078
00000000: 9f80 d4be 924c 383f dc71 e2bd ebd7 df3d
00000010: 1d0c d13d a0f7 b1be e495 d7be a361 9e3e
00000020: 26fa bb3e b035 d6be 6984 d3be cfad 773e
00000030: eb57 a8bb 35c1 0ebe 55d0 32be 0632 013d
00000040: 3386 f73e b1b4 913e 8cb2 d23e 1280 193e
00000050: 7687 92be 77bc ebbd 8abe d83c 55b9 b53e
00000060: 843b f23e 9865 34be 3229 bbbd 19ca 45be
00000070: 3f55 cabd 2a90 e13e 3b84 983e 2a16 c53e
00000080: de52 ae3e 381e 26bf 5158 b03e 2034 b93e
00000090: f176 96bd b53e fabb d6b0 693d f3bf 23be
000000a0: 0bf9 d7bd 024c 723e 8269 1f3d 9e21 4abc
000000b0: 9dcb a33e b947 b1bd 3222 7f3d 23f5 58be
000000c0: 3cfd d1be 7657 b93e bb7d a93d 58ad e23e
000000d0: 0f90 0e3f 9c45 30be ed2e 973d 77ff 87bd
000000e0: d0ff 1b3f b593 c5be 6f08 8dbe 48f5 05be
000000f0: 9ee8 82be 9472 b43d 9630 8abe 3ae5 393e
00000100: e25a 523e f626 dabd 6345 043f 16dc c1be
00000110: 10b1 c13e 9a3a 99bd 7376 62be 2901 39bd
00000120: 4527 863d 899c 973d 58e5 303e f843 003d
00000130: 4b06 96be 58ca b9bd 994c 003f bcad ac39
00000140: eba9 bf3d 8e74 413e 5c0e 8bbe 0569 82be
00000150: bec8 7e3e d9d3 b53e 9eac abbd ba14 31be
00000160: 45de be3d 6693 c1bd f6b3 d03c 6759 8d3e
00000170: 66ae babe 193f c73d dc1e b7bd 9be0 93be
00000180: c1dd 12bf dcf9 723e 2e41 03bf b5f1 9c3d
00000190: 696e 013f d517 8d3e dfe4 20be 1e02 6a3e
000001a0: 7340 12bd 8fde e73d b0c5 d3be 67f1 bfbd
000001b0: 7317 0dbe f922 92be af37 c2be 1da8 9c3d
000001c0: 1441 0d3f d5b2 793e 72f0 b8be d231 cebe
000001d0: 5d00 b43c 132c b23e b1a3 c1be b1ac 18be
000001e0: 5297 d0be 221a 58be 2b48 78bd cde9 643e
000001f0: d24e 7bbe b13f da3e 77ae a23e cb62 3ebd
00000200: 4bff 6abf a412 94be 703e a03e 01c3 ab3e
00000210: 9a55 d03e 4935 02bf d968 b33d 3eab c3be
00000220: 3225 6d3e 498c 083f 0ba5 bcbd 185d 0e3f
00000230: 9034 e7bd bc92 c6be d5fc 263e bc82 41be
00000240: f68a c73e 879e a93e c94e 9fbe 6f61 cebd
00000250: cae2 90be a58e 703e f1ce 2ebe 877b bebe
00000260: f0a9 96be 7f89 4c3e 6781 013f cfca d1be
00000270: ee17 58bd 4549 863e 5707 c33c 1944 8dbd
00000280: 8c41 dabe 4ccc 9dbe f4b8 a43d dd9c 483e
00000290: c6f6 d73e 39a3 083e b659 143f 7812 d8be
000002a0: d051 9ebe 919f 16be 49ad c6be 9f07 f73d
000002b0: 13aa f0bd da50 8c3e 3b4b 9abe 7951 35be
000002c0: 50a3 a9be bcea 0c3f c175 85be 0689 e53a
000002d0: dcc0 f03c 4ac9 1abe 30fe 073d b5d8 e5bd
000002e0: dc33 dabd 402a e53c a1ea b3bd 5284 a53e
000002f0: e061 63be 94ea 36be 3e70 703e e524 2b3e
00000300: b783 a1be 1d38 46bd 1dc4 8ebe 975b ccbe
00000310: 2227 c23e 6014 303e 7ba9 01be b48a 99be
00000320: 261f b0be 09ec b8be 5037 ab3e e5c2 8ebe
00000330: 8edb fabd 71e8 e6be ba22 713e e22e 61bd
00000340: 76a3 82be be01 01be 37a8 35bf 6dd1 c83d
00000350: e1df a33e 582e 03be 731b 833e db7c 97bd
00000360: 2d2b ae3d 29b1 08bf 5df3 1a3d 4413 c4be
00000370: 58d7 a9be cb4d d7bc d55d 11be bbc2 42be
00000380: 88ed a43e b3a4 f8bd 3419 54be d001 43be
00000390: 8510 b33e be1d 65be 3c75 11bf 33c9 da3e
000003a0: d3ca 9dbe 1a5f 233f 395f 96bc e184 083e
000003b0: 8058 433d dcf0 82bd ea2e 53be 1143 2d3e
000003c0: c461 93bd 5483 85be 9dce ddbd ba70 69be
000003d0: 8dec 723e eae9 1dbe ab57 6cbe bfae 90bd
000003e0: 3a83 a1bd 10f9 313e b676 af3e ff4d 103e
000003f0: 6b43 4e3e 87b1 86bd 33fa f8be 496e 043f

linear1.bias f4 [256]
0.29562524 -0.15264165 -0.2358386 0.2899874 -0.16025573 0.076255016 -0.037636075 -0.062534295
0.08239322 -0.06543614 0.15039837 0.5412337 -0.15929832 -0.26276213 -0.12027034 0.07419018
0.38652012 -0.12335681 0.13297538 0.1502053 -0.13316765 0.19777806 -0.08944005 0.16178633
0.039579857 -0.16790925 -0.06731693 -0.047905482 -0.27046424 -0.056878272 0.06015852 -0.13768654
0.013672521 -0.07342677 -0.057075452 -0.31600678 -0.22348285 0.03776267 -0.11968708 0.30412197
0.004401387 0.10806821 -0.112911604 -0.30865535 0.056670263 -0.10662787 -0.07443181 0.22571312
-0.23466963 0.14764453 -0.039851993 -0.1423258 -0.18617108 -0.21781392 -0.11040532 -0.042951573
-0.28298315 -0.28397486 0.14107282 -0.19067056 -0.29324055 0.10884931 0.2714322 -0.26471776
-0.010170419 -0.005637581 -0.3564578 -0.35046768 -0.12918475 0.27711535 -0.32581356 0.14267068
-0.21037404 -0.08496236 0.17387243 -0.2686849 0.2702989 -0.13641457 -0.16923203 -0.21618326
0.010384409 -0.22305275 0.1103804 -0.042165194 0.06926664 -0.033155415 -0.16933826 0.7945241
0.15023576 -0.11823435 0.6607128 0.19740608 0.0368678 -0.19679599 0.048209593 0.164501
-0.17823046 0.32985172 -0.16109265 -0.2839493 -0.2956216 -0.099987656 0.14099924 -0.1716232
0.27886233 0.22822368 -0.29444236 -0.16578338 -0.12487824 0.26665938 -0.16036028 0.13273983
-0.015098507 0.21901114 0.065991916 -0.17000085 -0.11663285 -0.12524888 -0.07755082 -0.05662149
-0.0637004 -0.116102695 0.49243593 -0.2212576 0.14349039 -0.31608275 0.10179065 -0.20152067
0.43559408 -0.42334434 -0.35593742 -0.1131148 -0.19927797 -0.14984979 0.13945118 -0.033438325
0.39880487 -0.1730027 0.15306783 0.08037308 0.28509104 -0.01987044 -0.078839906 -0.018047825
-0.16516386 -0.013254239 0.56776875 -0.26817548 -0.17827742 0.044409275 0.35770476 0.0015184093
0.05214573 0.2699138 -0.05723791 -0.25065395 0.19602227 -0.22801809 0.051275644 -0.15890543
-0.23735496 0.039951246 -0.18927008 0.05887561 -0.1968643 -0.07296718 -0.10007679 -0.31304005
-0.038021497 -0.04136645 0.122366026 0.36492306 0.15452099 0.20194334 -0.32496578 0.032396138
-0.10517111 -0.1041754 -0.11474465 -0.120860934 0.1299011 0.02055922 -0.23735864 -0.24631676
-0.05945615 -0.0935935 -0.18689223 -0.15269968 -0.103330284 0.00083444844 0.5560638 0.2521432
-0.09187481 0.08352185 -0.21844071 -0.31392717 -0.07400911 0.027615283 0.02395681 -0.45861804
-0.05103389 -0.14735521 -0.095224306 0.025547797 -0.26810837 -0.0016895308 -0.072715946 0.105109386
0.6397735 -0.013138658 0.20021866 -0.30064666 -0.35040644 0.5175311 0.18814197 -0.0931719
0.32788256 -0.21311525 0.22315478 0.41659412 -0.27127945 -0.3284744 -0.2636035 0.6906726
-0.17425868 -0.24204485 -0.28997976 -0.1198715 -0.0724112 0.2959058 -0.19793619 -0.08895382
0.19371195 0.22498892 0.36723256 0.24104214 -0.31489962 -0.12676887 0.130355 -0.03039043
-0.31887272 -0.19645847 0.6290044 -0.2047234 0.4390985 0.2647949 0.2343233 0.11856495
-0.13711512 -0.48966628 0.1840924 0.12210357 -0.24039544 -0.31402737 -0.11528405 0.29642433
00000000: 315c 973e 184e 1cbe ad7f 71be 3a79 943e
00000010: 141a 24be 972b 9c3d 4928 1abd fb11 80bd
00000020: c7bd a83d 6203 86bd 0802 1a3e 4b8e 0a3f
00000030: 191f 23be c288 86be 4c50 f6bd 05f1 973d
00000040: f7e5 c53e 7fa2 fcbd b32a 083e 6bcf 193e
00000050: 1a5d 08be 5586 4a3e 582c b7bd 51ab 253e
00000060: 7d1e 223d 67f0 2bbe 75dd 89bd 8a38 44bd
00000070: 4a7a 8abe 31f9 68bd c868 763d b3fd 0cbe
00000080: b602 603c c660 96bd f3c7 69bd a4cb a1be
00000090: b0d8 64be 08ad 1a3d 801e f5bd e0b5 9b3e
000000a0: 8339 903b de52 dd3d 333e e7bd 1308 9ebe
000000b0: 141f 683d b65f dabd b46f 98bd 5721 673e
000000c0: 3c4d 70be 2130 173e d83b 23bd dbbd 11be
000000d0: a2a3 3ebe 9d0a 5fbe 2f1c e2bd fded 2fbd
000000e0: 2be3 90be 2765 91be 6575 103e 253f 43be
000000f0: a023 96be 63ec de3d 29f9 8a3e 1689 87be
00000100: d4a1 26bc 75bb b8bb a381 b6be 8070 b3be
00000110: 0249 04be 10e2 8d3e 09d1 a6be 4318 123e
00000120: 4b6c 57be bf00 aebd 9d0b 323e 1191 89be
00000130: 9e64 8a3e 43b0 0bbe 294b 2dbe 255f 5dbe
00000140: 5e23 2a3c f167 64be 1f0f e23d 69b5 2cbd
00000150: abdb 8d3d f9cd 07bd 0267 2dbe ee65 4b3f
00000160: 67d7 193e da24 f2bd 7924 293f d224 4a3e
00000170: b102 173d e384 49be 6c77 453d f372 283e
00000180: 0c82 36be 53e2 a83e 79f5 24be cd61 91be
00000190: b75b 97be 54c6 ccbd 1b62 103e febd 2fbe
000001a0: 0bc7 8e3e 78b3 693e 26c1 96be 1ec3 29be
000001b0: 2ac0 ffbd 9487 883e 7c35 24be f3ec 073e
000001c0: ba5f 77bc 7544 603e c526 873d b414 2ebe
000001d0: 34dd eebd 3e41 00be f7d2 9ebd efeb 67bd
000001e0: 5b75 82bd 40c7 edbd 9020 fc3e 5a91 62be
000001f0: 25ef 123e 99d5 a1be 9e77 d03d 6f5b 4ebe
00000200: 3006 df3e 97c0 d8be 6e3d b6be bba8 e7bd
00000210: 860f 4cbe 3972 19be 4acc 0e3e a0f6 08bd
00000220: 2730 cc3e 9f27 31be d0bd 1c3e a49a a43d
00000230: 74f7 913e 55c7 a2bc d176 a1bd 08d9 93bc
00000240: b720 29be 4f28 59bc 4b59 113f 4c4e 89be
00000250: 5b8e 36be 80e6 353d 1425 b73e 5d05 c73a
00000260: c396 553d 2432 8a3e 4c72 6abd b755 80be
00000270: 10ba 483e 937d 69be 6906 523d 1bb8 22be
00000280: 2e0d 73be eba3 233d 04d0 41be 8d27 713d
00000290: cc96 49be d16f 95bd 0ff5 ccbd c946 a0be
000002a0: 6ebc 1bbd de6f 29bd 0a9b fa3d 32d7 ba3e
000002b0: c03a 1e3e 3cca 4e3e ea61 a6be d0b1 043d
000002c0: f363 d7bd ea59 d5bd 3eff eabd f085 f7bd
000002d0: cb04 053e cf6b a83c 250e 73be 763a 7cbe
000002e0: 4b88 73bd f3ad bfbd ad60 3fbe 4e5d 1cbe
000002f0: d49e d3bd e3be 5a3a 325a 0e3f ea18 813e
00000300: dc28 bcbd 810d ab3d ecae 5fbe 10bb a0be
00000310: 1792 97bd 7239 e23c 1241 c43c fccf eabe
00000320: ea08 51bd 49e4 16be f604 c3bd 9d49 d13c
00000330: 8045 89be 3f73 ddba 19ec 94bd 9743 d73d
00000340: 32c8 233f 8743 57bc 1f06 4d3e 5cee 99be
00000350: 7968 b3be eb7c 043f 4aa8 403e e9d0 bebd
00000360: 39e0 a73e e23a 5abe b082 643e d34b d53e
00000370: 24e5 8abe cc2d a8be 0af7 86be ebcf 303f
00000380: de70 32be 9bda 77be 3a78 94be 307f f5bd
00000390: 534c 94bd f780 973e c9af 4abe 6c2d b6bd
000003a0: 6d5c 463e 7f63 663e e805 bc3e c0d3 763e
000003b0: 863a a1be b3cf 01be c87b 053e 5af5 f8bc
000003c0: 4943 a3be 692c 49be 6f06 213f 03a3 51be
000003d0: 85d1 e03e 3293 873e 72f2 6f3e 2ed2 f23d
000003e0: e867 0cbe 8ab5 fabe b882 3c3e 7011 fa3d
000003f0: 392a 76be 32c8 a0be 0b1a ecbd eec4 973e

linear2.weight f4 [3, 256]
0.48146456 -0.42663836 -0.20577641 0.11655109 -0.46391538 0.03992529 -0.016694823 0.17497092
0.14272812 0.058005296 0.28111878 0.47551864 -0.59901255 0.19625413 -0.33255276 0.096821174
0.13205713 -0.10189778 0.2290986 0.25295007 0.22933099 0.09818629 -0.053749416 0.06766729
0.06164725 0.36656192 -0.25105363 0.012803499 -0.11702372 -0.31109285 -0.0013670111 -0.17273995
-0.034417044 -0.022230955 -0.03726931 -0.023228073 -0.022864493 0.027428774 0.110973544 0.2293227
0.4753563 -0.20431434 0.05220286 -0.1514924 -0.5099856 0.13580967 -0.596876 0.2428837
-0.003783279 0.34865823 0.25961867 -0.06821362 -0.0012800405 -0.07047399 -0.42868125 0.013035438
0.016837984 0.009851038 0.28291735 -0.062122174 -0.27192226 0.36193448 0.11798963 -0.07087447
-0.14427595 -0.02388938 -0.22346377 -0.18525228 -0.12588294 0.19636823 0.0016375979 0.033754375
-0.06967488 -0.47210136 -0.006038987 -0.07492117 0.20812511 0.27752343 -0.72570294 -0.32550538
0.439121 -0.049260985 0.100379586 0.3533803 -0.019054934 0.018814333 0.01164972 0.23822397
0.4932396 -0.1134216 0.40232345 0.016090132 0.014388715 -0.4414647 0.13222106 0.1518114
-0.25812152 0.08845753 -0.11729024 -0.13232067 -0.25036928 -0.029152567 0.0060482086 -0.056344375
0.38914445 0.3275004 -0.2003926 -0.04839011 -0.38579845 0.18051718 -0.028129943 0.08811455
-0.3923233 0.45964575 -0.0011899397 0.00027130227 -0.3993447 -0.08308731 -0.018581837 0.36481613
-0.03716274 -0.013821692 0.52927834 -0.052402996 -0.62152594 -0.35914266 0.2394762 0.008895284
0.44736505 0.00031373682 -0.027490297 0.03919713 -0.4618499 -0.2735535 0.1080388 -0.4378068
0.17152603 0.03447315 0.28798762 0.04523686 0.514018 0.14842683 -0.26303938 -0.6541078
0.023210637 0.23151372 0.26219347 0.21421595 0.0046555907 0.21148847 0.4617369 -0.15806131
0.11004287 0.31145683 -0.14353082 -0.0758952 0.017167754 0.095964536 -0.27186093 -0.10607266
-0.08860075 0.20795934 -0.44005457 0.40770608 -0.21396647 -0.45632413 -0.19925945 -0.1928757
-0.19614406 0.33252057 -0.23953697 0.14595325 0.059054248 -0.1661127 -0.016242372 -0.3350984
-0.26837692 -0.006528967 -0.4740439 -0.020726232 0.028777985 0.3645761 -0.11895107 -0.3044474
-0.058497775 -0.19965011 -0.07393102 -0.02015419 -0.3632354 -0.30171862 0.4812532 0.27415475
-0.13142392 0.08260611 0.04114388 -0.6182372 -0.044624757 -0.18799187 0.032431465 -0.02028365
-0.7439201 -0.10565022 -0.42643005 -0.33041552 -0.28912523 -0.416239 0.0014154995 0.07585592
0.31857678 -0.08622624 0.68703145 0.01102911 -0.13188778 0.20152599 0.03278699 0.32045513
0.25988132 0.06280303 0.06830464 0.21732812 -0.14869311 -0.30994254 -0.021051442 0.50379187
-0.21732593 -0.7126427 -0.008851694 -0.09423029 -0.005816261 0.2112728 -0.22265683 -0.06993439
0.2005303 0.37995717 0.20450838 0.3547168 0.00064135646 0.0209078 0.22344576 -0.549276
-0.17642996 -0.10832039 0.25771537 -0.01471237 0.23578514 0.194682 0.20588665 0.045086782
0.2715605 -0.22891349 0.14662819 0.3566767 -0.05491053 -0.23438567 -0.0491907 0.16958804
00000000: 8682 f63e 5870 dabe 0db7 52be 56b2 ee3d
00000010: 5186 edbe b388 233d 95c3 88bc 942b 333e
00000020: 5227 123e f696 6d3d cdee 8f3e 2e77 f33e
00000030: e358 19bf d8f6 483e 5b44 aabe 2e4a c63d
00000040: fc39 073e c9af d0bd d398 6a3e ac82 813e
00000050: bed5 6a3e e515 c93d 5928 5cbd 2695 8a3d
00000060: d481 7c3d 01ae bb3e 1a8a 80be c4c5 513c
00000070: 22aa efbd 9047 9fbe 482d b3ba bee2 30be
00000080: e3f8 0cbd b11d b6bc b4a7 18bd cd48 bebc
00000090: 514e bbbc 4fb2 e03c 1946 e33d 92d3 6a3e
000000a0: e761 f33e c737 51be abd2 553d d320 1bbe
000000b0: 6b8e 02bf b111 0b3e decc 18bf 81b6 783e
000000c0: e4f0 77bb 5583 b23e bdec 843e 95b3 8bbd
000000d0: 08c7 a7ba ab54 90bd 1c7c dbbe 9792 553c
000000e0: d0ef 893c 4066 213c 8bda 903e d273 7ebd
000000f0: 6539 8bbe 7a4f b93e 8ca4 f13d a226 91bd
00000100: 13bd 13be a9b3 c3bc b0d3 64be c6b2 3dbe
00000110: 75e7 00be c114 493e aba4 d63a 0742 0a3d
00000120: b4b1 8ebd 45b7 f1be b2e2 c5bb 4570 99bd
00000130: c01e 553e 8d17 8e3e abc7 39bf a4a8 a6be
00000140: 78d4 e03e e3c5 49bd d093 cd3d 43ee b43e
00000150: 1819 9cbc 8420 9a3c 78de 3e3c fcf0 733e
00000160: e789 fc3e 9549 e8bd 57fd cd3e 74cf 833c
00000170: a5be 6b3c a907 e2be f564 073e 7374 1b3e
00000180: 8128 84be 3929 b53d de35 f0bd 127f 07be
00000190: 6730 80be 5dd1 eebc 0d30 c63b 5cc9 66bd
000001a0: f13d c73e 22ae a73e b833 4dbe b534 46bd
000001b0: 6087 c5be 7fd9 383e c470 e6bc 6775 b43d
000001c0: 99de c8be b056 eb3e c0f7 9bba 933d 8e39
000001d0: e976 ccbe ae29 aabd f038 98bc 2ec9 ba3e
000001e0: f537 18bd 6174 62bc c97e 073f 86a4 56bd
000001f0: 531c 1fbf 8ce1 b7be 4039 753e 86bd 113c
00000200: 080d e53e 0b7d a439 5533 e1bc 2b8d 203d
00000210: 9777 ecbe 340f 8cbe 7243 dd3d 3628 e0be
00000220: 85a4 2f3e b833 0d3d 1d73 933e 494a 393d
00000230: af96 033f 34fd 173e 19ad 86be 9c73 27bf
00000240: 3c24 be3c ef11 6d3e 393e 863e 6d5b 5b3e
00000250: ed8d 983b 6f90 583e c768 ec3e d3da 21be
00000260: 285e e13d 4577 9f3e bef9 12be f16e 9bbd
00000270: 64a3 8c3c 0e89 c43d 5b31 8bbe 9f3c d9bd
00000280: 4f74 b5bd 4bf3 543e d54e e1be dabe d03e
00000290: 071a 5bbe 51a3 e9be ab0a 4cbe 3581 45be
000002a0: fdd9 48be 2340 aa3e 2e49 75be c574 153e
000002b0: dee2 713d 7319 2abe b90e 85bc 0492 abbe
000002c0: b368 89be f2f0 d5bb e2b5 f2be 0fca a9bc
000002d0: cfbf eb3c b8a9 ba3e 9e9c f3bd 88e0 9bbe
000002e0: 5d9b 6fbd 1471 4cbe 2669 97bd 661a a5bc
000002f0: fef9 b9be dd7a 9abe d266 f63e 035e 8c3e
00000300: fe93 06be 642d a93d 7c86 283d cb44 1ebf
00000310: 73c8 36bd f180 40be dbd6 043d e629 a6bc
00000320: 8c71 3ebf 245f d8bd 0a55 dabe 392c a9be
00000330: 3908 94be 471d d5be 4888 b93a 595a 9b3d
00000340: 7f1c a33e 6297 b0bd 4be1 2f3f 71b3 343c
00000350: 970d 07be d45c 4e3e a74b 063d b212 a43e
00000360: 2a0f 853e e09e 803d 4ee3 8b3d 438b 5e3e
00000370: 0243 18be cab0 9ebe 1374 acbc 81f8 003f
00000380: b08a 5ebe c16f 36bf b206 11bc cffb c0bd
00000390: 5596 bebb e657 583e 2700 64be c339 8fbd
000003a0: d157 4d3e bf89 c23e a56a 513e 719d b53e
000003b0: b420 283a d646 ab3c f7ce 643e 5a9d 0cbf
000003c0: 0eaa 34be 15d7 ddbd 45f3 833e 270c 71bc
000003d0: a971 713e b85a 473e f3d3 523e ebac 383d
000003e0: fa09 8b3e 4c68 6abe b325 163e 549e b63e
000003f0: dde9 60bd cc02 70be 307c 49bd 7da8 2d3e

linear2.bias f4 [3]
0.22869979 0.06865258 0.0027195625
00000000: 4730 6a3e b999 8c3d b03a 323b
